THU_Deep_Learning/HW2/codes/weights/CNN_test_SoftmaxCrossEntropy_1_conv2_W.png.npy (npy, 1280 bytes, 1 tensors)

array f8 [4, 4, 3, 3]
0.017929767443225712 -0.016112886348511674 0.18409270602448766 0.05244995669467591 0.06672582837162014 -0.010367224391044746 0.13336759034004067 -0.034938192241570735
0.09660702841947923 -0.31505774906346595 0.04476002539883724 -0.13331142910471008 0.03509992546026486 0.14144037739537083 -0.13163218910790772 0.30420367671487875
-0.16012437022538692 0.019595961385392362 -0.06555340820810948 -0.12037470556201185 0.053880969445887765 0.13657076914344837 -0.013646825439180173 0.09395213210564654
-0.16943470731471486 -0.19069743811844803 0.14947420078779364 -0.24445800470323503 0.09958035443557942 0.08629284528257943 -0.07210350781190877 0.08510198372524581
0.007915164082153064 -0.13759688189965769 -0.036250328314316314 0.05302438455170002 -0.0010263161087753524 0.13485574910403655 0.25664854640324775 0.20153936825358992
0.13841802025189898 -0.11864137614398491 0.10759715639188314 0.021335127949645052 0.20365035647004986 0.3275807811016184 0.16152148823347848 0.20328167481449838
-0.11500921417914972 -0.0626504814386425 -0.07176197750886469 -0.2722133131687664 -0.25125194016449176 -0.286432460293007 -0.15530322009491387 -0.03580766661234022
-0.028766919663931512 0.48137830986598046 0.4768302420348377 0.4655998546630816 -0.1449718969078952 -0.3382088514898914 -0.19468104049887844 -0.5192681615034479
-0.7340813199988456 -1.1352045335507757 -0.3960269501727212 -0.11833895988656128 -0.0779317198213852 0.9127837278836799 0.993445983943931 0.7452304689098194
-0.07408827597674196 -0.11494634726418272 0.17131441946772447 0.2547004536150936 0.18427274490549875 0.0011858729322107597 0.14052124701026386 0.04214941071958204
0.20219375115044821 0.21932531147179338 -0.03924426497172105 -0.13226603565123907 0.19304455970356763 0.04131201260272586 -0.15860553517229348 0.3812791174684434
0.0037353562208060197 -0.004822812369327935 -0.04644879940369903 0.02734381003903608 -0.0439680991212519 -0.0030418559608517788 -0.1183844035700723 -0.16424521927429078
0.11476309649360464 0.0021572038730850434 -0.09290489668502566 0.02183382889972234 0.6203287192715567 0.6757851314345648 -0.49502394853617754 0.0442820665086983
0.31348426788137407 -0.8117890376295056 -0.3008040955826958 -0.38105466843181496 0.00833972664209646 0.04592030581190566 0.19414012251212184 -0.07947572657611511
0.043500715320536856 -0.13205119242651125 -0.07486469012566092 0.023457982697633148 -0.08260868439801036 0.0035600933912124273 -0.04150916222414342 -0.11932736048389578
-0.05699254466316832 -0.280952105592916 -0.17715807626995264 0.0914788916604409 0.11989842046198851 0.2401702964512513 0.17477226489237235 -0.1430427716684234
-0.07756908673993435 -0.39280220049475884 -0.6664914735816306 -0.44778416634165497 -0.37434559955080593 -0.5503666624952455 -0.36872182640997664 0.1294340172246488
0.24739872558011927 0.15883838168973205 0.6136166708327109 0.6565031622188742 0.5158294370327068 0.1295701031799484 -0.19067563478250793 -0.4006195064167308
00000000: be95 2c53 2e5c 923f 15e3 a47f e57f 90bf
00000010: 2756 e78b 5990 c73f a349 5c81 b8da aa3f
00000020: 0295 a7a2 f114 b13f b8bb ad4d 693b 85bf
00000030: a1ab 6d6f 3012 c13f 1729 1e32 6be3 a1bf
00000040: 991a a0fb 3cbb b83f b20d 25fa e729 d4bf
00000050: 2b24 833a c9ea a63f 4508 1852 5910 c1bf
00000060: a043 e30f 9ef8 a13f 339e 9fe1 b71a c23f
00000070: 7fe0 a8d5 52d9 c0bf 1b0e b4b2 1278 d33f
00000080: 9f8f b492 f47e c4bf ebc0 22b5 f610 943f
00000090: be29 65b0 1bc8 b0bf 5c8b a76f e0d0 bebf
000000a0: a731 4b53 4996 ab3f 41c4 87a5 267b c13f
000000b0: 04dd a4e7 ddf2 8bbf 5681 c836 3f0d b83f
000000c0: 17ad 5c57 09b0 c5bf f629 130e c668 c8bf
000000d0: 115a fd79 f821 c33f 4210 b95f 664a cfbf
000000e0: 96f9 9f1d 197e b93f 4912 5eb4 4917 b63f
000000f0: a0a1 fa1f 6075 b2bf 31b6 ec5c 3ec9 b53f
00000100: 70a8 0057 d335 803f 8432 e54d c69c c1bf
00000110: a393 282d 678f a2bf 4385 141b 0326 ab3f
00000120: 0fd4 d787 aed0 50bf 612a 0a04 f442 c13f
00000130: 788b 5706 ee6c d03f c6b9 c0c1 0acc c93f
00000140: 3059 1483 aeb7 c13f 55a8 7dfe 475f bebf
00000150: 1e82 d8bb 7c8b bb3f d4e4 3233 e0d8 953f
00000160: 0ac6 6d02 3711 ca3f 234b 6861 15f7 d43f
00000170: 6d32 c872 bcac c43f 0a29 9a48 2205 ca3f
00000180: 045b a36d 3e71 bdbf 498d dba8 dc09 b0bf
00000190: 4f32 7f32 fe5e b2bf 421f 6663 f16b d1bf
000001a0: dd08 8404 8314 d0bf 8329 5ed0 e854 d2bf
000001b0: e2b4 a2d5 f9e0 c3bf cc96 17ea 6155 a2bf
000001c0: bd29 a74c 1375 9dbf 7333 78f8 e6ce de3f
000001d0: 1a23 d2fd 6284 de3f ee37 3355 63cc dd3f
000001e0: b67c 076a 708e c2bf b979 17bd 36a5 d5bf
000001f0: 0b06 0cef 4eeb c8bf 055d 7043 d89d e0bf
00000200: 56fc bf1b 987d e7bf bbf1 9d3a cc29 f2bf
00000210: b5e4 d46b 8158 d9bf 1731 8e4a 764b bebf
00000220: c531 f44b 55f3 b3bf 929a 7238 8635 ed3f
00000230: 1737 6c3b 4fca ef3f d569 7e91 edd8 e73f
00000240: 194e 5602 73f7 b2bf cf58 4bb2 1f6d bdbf
00000250: a63a 7982 a1ed c53f 7f67 a321 034d d03f
00000260: f5e5 74d2 3f96 c73f 8af4 815d e96d 533f
00000270: 2eaf 26a8 99fc c13f 752c 2c89 9b94 a53f
00000280: 4bc8 521e 7ce1 c93f 356a fa0f da12 cc3f
00000290: fedb 3705 d317 a4bf a82f bfec 17ee c0bf
000002a0: 457c 4c23 afb5 c83f 2d0d 1f1e d926 a53f
000002b0: 38c9 43a9 2f4d c4bf 652e 0b87 e066 d83f
000002c0: 1c2c d519 9c99 6e3f 1b87 6ad6 15c1 73bf
000002d0: 3c34 c114 23c8 a7bf 2179 7607 0400 9c3f
000002e0: 630c 9697 fc82 a6bf 963d dffb 3beb 68bf
000002f0: 009f b0b5 704e bebf cb59 a7c2 fc05 c5bf
00000300: 224c 3a42 1d61 bd3f fc17 be02 fcab 613f
00000310: 8083 e684 9dc8 b7bf 2d77 4874 9b5b 963f
00000320: 104f 419d bbd9 e33f f74d d423 08a0 e53f
00000330: 63c7 6ced 78ae dfbf 2687 e896 23ac a63f
00000340: b41a 9751 2010 d43f 5ed7 fb00 2dfa e9bf
00000350: 4ff4 41d2 5f40 d3bf f7c6 b91e 3363 d8bf
00000360: b5aa 7b29 6b14 813f b270 5ec7 dd82 a73f
00000370: b3f7 8362 95d9 c83f 7762 786e 8558 b4bf
00000380: fa01 4fcb b945 a63f 4e51 6fb0 0de7 c0bf
00000390: e302 b713 552a b3bf 0cdd 1092 5e05 983f
000003a0: e6e3 dabd d725 b5bf e868 f395 0e2a 6d3f
000003b0: 395f 795c b040 a5bf 9edc cbe6 3c8c bebf
000003c0: a664 e376 202e adbf f3e3 508a 1efb d1bf
000003d0: c59e e6a7 1dad c6bf 3ab7 f41f 296b b73f
000003e0: a8ee b9b2 a9b1 be3f a747 5d78 e6bd ce3f
000003f0: 8ef4 fa04 f05e c63f 955e 1fbd 394f c2bf
00000400: e085 ba52 91db b3bf 2bff 3ad7 ab23 d9bf
00000410: 0912 43ed e553 e5bf 76a8 86eb 7ea8 dcbf
00000420: ea38 de3e 47f5 d7bf 5639 078c 9a9c e1bf
00000430: ae24 706e 2399 d7bf 5621 7c3b 4b91 c03f
00000440: 0627 b8ed c2aa cf3f cf7d 5aeb d054 c43f
00000450: 7238 b06d bfa2 e33f b46b 6eeb 1202 e53f
00000460: 7ed3 4bbc ac81 e03f a33e d9cd c095 c03f
00000470: fc77 c427 0f68 c8bf f3c4 8cff bfa3 d9bf
