THU_Deep_Learning/HW2/codes/weights/CNN_test_SoftmaxCrossEntropy_1_conv1_W.png.npy (npy, 416 bytes, 1 tensors)

array f8 [4, 1, 3, 3]
000000 5c 1d fa 9a ac 81 c4 bf 97 f7 7b 47 bb 03 c1 bf
       -0.16020734374272194 -0.13292637815896732
000010 4e ae 09 3a 00 9d c1 bf 91 11 69 2f 7e 35 c0 3f
       -0.13760378679158908 0.1266324740883076
000020 e9 92 d3 da 56 bb 90 3f 10 02 7d d0 61 06 c1 bf
       0.016339642625910953 -0.13300726585477252
000030 e6 c4 e7 19 20 12 c2 3f 62 5f f0 f9 84 a3 bc 3f
       0.1411781431666334 0.11187010862374572
000040 10 2e c0 41 2e f2 c3 3f 54 b9 85 65 8b a9 d9 3f
       0.15582826815112627 0.40097317613881
000050 63 6d af e6 50 07 a0 bf 05 3a fc 77 7f 3a aa bf
       -0.03130581680280888 -0.05122755374587843
000060 df 3a 81 bc f6 8d d2 3f a8 5e 5f 27 2a 0e d0 3f
       0.2899147835604889 0.2508645424363558
000070 15 0a 97 0f a2 b9 c9 3f 58 62 ac 10 b6 c8 d4 3f
       0.20097757111769057 0.3247504389596876
000080 96 86 67 b2 e4 eb af 3f d1 50 59 5f 99 0b b4 3f
       0.06234659841335348 0.07830198839048143
000090 06 81 77 be 2a f8 d3 3f 7a 03 27 84 2e f6 d7 3f
       0.31202190971636445 0.3744007387686491
0000a0 ff d2 2a 44 cc 1b d4 3f af 44 4d 17 39 b3 d0 3f
       0.31419665009461534 0.2609389045292784
0000b0 02 d4 08 3d e0 cd a2 bf 07 bd 63 9b a0 a0 a7 bf
       -0.036726958704470306 -0.04614736458631268
0000c0 e0 80 5c ff 89 17 e2 bf e3 5d cb 7f f6 61 e2 bf
       -0.5653734195257378 -0.5744583602890397
0000d0 99 30 c1 ae 20 a6 e6 bf 1c 24 7e ed 0a 3f e2 bf
       -0.7077792561699595 -0.5701956404237793
0000e0 f7 aa df 0c 8d ec e8 bf 05 f1 f5 dc 26 c1 f0 bf
       -0.7788758517684461 -1.0471562033918087
0000f0 e4 fb d4 44 69 4d f1 bf 44 77 7f d4 1c df ec bf
       -1.0813992203472873 -0.9022354269361377
000100 59 2b b5 51 4f 6a f0 bf b5 24 e3 b9 1a 9e f0 bf
       -1.025954550905871 -1.038599706766303
000110 95 2a d1 a5 2c ac e9 bf b3 1f eb b8 e7 01 e1 bf
       -0.802267383443296 -0.5314825641335034
