THU_Deep_Learning/HW2/codes/weights/CNN_test_SoftmaxCrossEntropy_1_fc3_W.png.npy (npy, 15808 bytes, 1 tensors)

array f8 [196, 10]
0	0xbfc254568f05a2f4	-0.14319879516121825
1	0x3fbccc7ed796ae50	0.11249535334962357
2	0x3fba27eec786ea92	0.10217182513489778
3	0x3fb5f87d5c1a13c1	0.08582290171223318
4	0xbf74cb967be97f3e	-0.005076968982933581
5	0x3f963be031ccee2c	0.02171278289755045
6	0xbf761f5eb6204445	-0.005401010481379369
7	0xbf9860056b7dadc4	-0.02380379170010173
8	0x3f9498e4ed1aace0	0.020114495250408093
9	0xbfa03b5f22a9e720	-0.031702969533354386
10	0xbfcfb2c19d02543a	-0.24764270941219185
11	0xbfadbf428e7818fa	-0.05809982289433609
12	0x3f955c5e08e4f6f8	0.02086016587531156
13	0xbf81dc5e7b87a8e5	-0.008721101898988734
14	0xbfa53125b59a5927	-0.041390589159322304
15	0x3f9954db5f3410a8	0.024737765966179964
16	0x3fc31a671b34a5ce	0.14924324825669405
17	0xbfc119940b9d9b6d	-0.13359308783693838
18	0xbfa178905dba68f4	-0.0341229547895682
19	0x3f8b3e2f8b81a86c	0.01330220360269526
20	0xbfaf599cd38d6f01	-0.061230564903523195
21	0xbfb70ed360daa11f	-0.09006997217750666
22	0x3fa5835ddfee7840	0.04201787336863605
23	0xbf9b843db3d18cc4	-0.02687164697671275
24	0x3fadff464dee8c03	0.05858821584049425
25	0x3f8066aaf61d4c2c	0.00800832332212139
26	0xbfb7ca3dadaf3c8e	-0.09292970171303436
27	0x3fb6bee2498e1259	0.08885015769744466
28	0x3f6930fdefcd9baa	0.003075118990114108
29	0xbfa9897862001ad8	-0.049876939738217
30	0xbfc1e15e80ac1a4a	-0.13969022066904052
31	0x3faad5f9c435aba4	0.05241375465524037
32	0x3fa1e0381d1735db	0.0349137816916529
33	0x3fc7c87d1d28de28	0.18580593036470927
34	0x3f8e8c721508a4e5	0.014916316286944961
35	0xbf895923cce87d62	-0.012377052012253646
36	0x3f9277e384b5a4ad	0.018035464262912516
37	0xbfb7b5f4d71cbe4d	-0.09262018443836802
38	0x3faf77ebc21215f0	0.061461799087776714
39	0x3f74ab41a89bc8ae	0.005046135405551917
40	0x3fc1822a6401eb14	0.13678483851602918
41	0xbf8b38afe6c7f748	-0.013291715841656462
42	0xbfa766e4b31e9c7c	-0.045706889023954894
43	0xbf7a4f6a9df71504	-0.006423393700463412
44	0xbfa122436310e597	-0.03346453270246313
45	0xbfb349dc6e3bce33	-0.07534578028917664
46	0xbfc7ddcf05499e8a	-0.18645656355078116
47	0x3fcf1e42782c07bf	0.2431109511163054
48	0x3fafae2224438ece	0.06187540714907201
49	0x3fb087362356cfc0	0.06456316340228252
50	0x3fbc4fe05a259bce	0.11059381676532995
51	0xbfbe0a25d287d865	-0.11734234228046743
52	0x3fa2fac976f2fbde	0.03706960274711667
53	0xbfca94e69defd2dd	-0.20766909324415553
54	0x3fd1a3aed481aa2a	0.27561541321361693
55	0xbfae956ff311b0f0	-0.0597338661399095
56	0x3f897804be27f542	0.012435948422530377
57	0x3fa4e27dd7168523	0.040790493493896095
58	0x3fa6a80ac9a937a5	0.04425080978090471
59	0x3fb25a43cc82f811	0.07168983214339188
60	0x3fc65889a348a723	0.1745769545826131
61	0x3fa9943f673ef9d6	0.049959164956351707
62	0x3fc0c97cfe591c98	0.1311489335950895
63	0xbfb4ff27648c059a	-0.08201833920249726
64	0xbfc835864e186dfc	-0.18913344205144245
65	0xbfbb9dd63d33a099	-0.10787714952641848
66	0xbfb7c02c6fc50836	-0.09277608612777119
67	0x3f722c77d3c8ace4	0.004436939311328578
68	0x3fba465cbe23cc97	0.1026361431320758
69	0x3fbf2ac822c65aa2	0.1217465481662239
70	0x3fc2b0491725e228	0.14600480680725636
71	0xbf90ee9f2c5e1433	-0.016535269816376718
72	0xbf9b3a339a08065f	-0.026589208866431565
73	0xbfc20358411ce82d	-0.14072707347242056
74	0x3fbfedd1288e3730	0.12472254982114062
75	0xbfb8a39053036bfd	-0.09624578501409072
76	0xbfabfc55f12b510c	-0.05465954369506862
77	0xbf9a8cc238a279af	-0.02592757673903073
78	0xbfa498635dda9e5e	-0.04022512932470755
79	0xbfc00936cc65070e	-0.1252811906834314
80	0x3fb450852b8c5f2d	0.0793536406821402
81	0xbfb6251a10ae1a9b	-0.08650362879971356
82	0x3fa4eb3151749351	0.040856877511294194
83	0xbf95f0b9691731f2	-0.021426102675649213
84	0xbfb18520e08f271b	-0.06843762857820616
85	0x3fb04fa020d7db5e	0.06371498872600287
86	0x3fa164266c37260e	0.03396720953930919
87	0xbfb3e20b6a9127a6	-0.07766791679128335
88	0x3f992641d90d2fe0	0.024560002205632148
89	0x3fb6d026115eaffa	0.0891135971457401
90	0xbfca80f2461d83a2	-0.2070601312980474
91	0x3fb7d3d4763ef4da	0.09307601820815439
92	0x3faaab015d955bc7	0.05208591716171145
93	0x3fa8ec9618ff7581	0.04868001036787018
94	0xbf93418b32c72492	-0.018804717039334458
95	0xbf881522fdc19742	-0.011759065026307195
96	0xbfa41f81659307d6	-0.03930286755486605
97	0x3f9a957bb30cea53	0.025960858157512878
98	0xbf93428b394e8bd8	-0.01880853211663322
99	0x3fb42a32c3c5cbb6	0.07876889495473346
100	0x3fae9139d2b4c708	0.059701735468833006
101	0xbf784924ee47f99d	-0.005929130802995533
102	0xbf8d4472891affb5	-0.014290709313513486
103	0xbfb87197c72256a6	-0.09548328982995233
104	0xbf84beb8a0be9caf	-0.010129396825347163
105	0x3fa0981e55d8cc01	0.0324105720323118
106	0x3fa21d2de4517300	0.03537887012564589
107	0x3f966fb99f607216	0.021910572388252524
108	0x3f8f95f16f8e25e6	0.015422712532898463
109	0xbf2caaa6e0b35364	-0.00021870886880628459
110	0x3fa52bff8bfb63f0	0.041351304853101456
111	0x3fc65247cf4e93f5	0.17438600180062705
112	0xbf71a4a0da7775ef	-0.004307392438446452
113	0x3f8eb38eb29c9396	0.01499091608600071
114	0xbfb077f85277d8c8	-0.06433059705145461
115	0xbfad42745e69beb5	-0.05714763309958696
116	0x3f7924acdbfe821f	0.0061384918516585165
117	0xbfaf28f934db47be	-0.06085947771283838
118	0xbf9878fecf7981ea	-0.023899060643431648
119	0xbfa749628706708a	-0.045481757147372084
120	0xbfb46d16e4ccc502	-0.07978957258162114
121	0x3fa2e1edef3cd9cf	0.0368799547708708
122	0xbfc5105655bb5a53	-0.1645610731709036
123	0xbfa5a401b8591f02	-0.0422668969663942
124	0xbf91b1d64a0321b1	-0.01727995707259006
125	0xbfbf76de0897683b	-0.12290752134086429
126	0x3fa1d5ba59277bf4	0.034833739646039336
127	0x3f7b905c61c48694	0.006729470125976928
128	0xbfbf35ad61b3664e	-0.12191280017159409
129	0x3fb051146873ed41	0.06373717832677973
130	0x3fbf46c32934c9c3	0.12217349773417312
131	0xbfaa2ea785eca6cd	-0.05113719472713072
132	0x3fa63000394e1121	0.043334967608674065
133	0xbfa3c374cc413cae	-0.03860058778138274
134	0xbfc1dd4ddcee130a	-0.13956616675945838
135	0x3f8925c3c187d5ab	0.012279061645112352
136	0xbfb6fe35274e2e51	-0.08981640061954833
137	0xbfb61929a8bcc13c	-0.08632145280421794
138	0xbf86d75779689edf	-0.01115291919002409
139	0xbf215973c288cdb2	-0.00013236558994976288
140	0x3fb693a1d79224cb	0.08819018853150166
141	0xbfb1ef09b479f855	-0.07005367904818745
142	0xbfb7f7b10050c835	-0.0936232209940336
143	0x3fc0b6ac70aad234	0.1305747556813387
144	0x3f839efb2997677b	0.009580576140183919
145	0xbfc73eadcce41455	-0.18160030846061895
146	0x3fc0bc7dafb08f3c	0.130752287660579
147	0xbfabeb78d4e1ee41	-0.05453088377631988
148	0xbfa058224bd58bdd	-0.03192240882596995
149	0xbfc60727d54cb361	-0.17209337153453944
150	0xbfb2116bae0ba35b	-0.07057831763417026
151	0xbfa7d9eb68183552	-0.04658446927724448
152	0x3fc3c9e577919de9	0.1545988878090008
153	0xbf7d13d339a528a6	-0.007098984812112052
154	0xbfc1ef6abb726dfe	-0.14011892464337444
155	0xbfb34f24e3f818c9	-0.07542639318134826
156	0x3fa5d6806e84d40c	0.04265214299304185
157	0x3fb8a30f9024bd48	0.09623811024788609
158	0x3fa900e1261dfc30	0.04883483495995511
159	0xbfc566bd383184b0	-0.16719784969158047
160	0x3fc0e98600b06615	0.13212657006879228
161	0x3f97b7a767fc022b	0.023161521646217913
162	0x3faac5d30b25e2d4	0.052290530310477173
163	0xbfac8fefd40ca386	-0.05578565085881508
164	0x3fb104d7ffabf279	0.06648015968307587
165	0x3fc96522ca39716c	0.19839892267453807
166	0x3fa3a08e1bdaa52c	0.03833431329742107
167	0x3fb2c0ffeb6ee45d	0.07325744150047471
168	0xbf952ade62257b4d	-0.020671343555814393
169	0xbfbf555f0fca048d	-0.12239641318775991
170	0xbfa9f8d74d1e54b9	-0.05072663132083605
171	0x3f9c3661cf2dda04	0.027551201124390814
172	0x3fc007c6e84727a8	0.12523733464905473
173	0x3fb0b7cbba1302fc	0.06530450146511763
174	0x3fc0160b43cf31e6	0.12567272959712666
175	0xbfc6735df7c2decb	-0.17539572332110817
176	0x3fc45c37464698a8	0.15906420642312935
177	0xbfb0920fe4eff738	-0.06472873057643092
178	0x3fa2a003ea4a3e69	0.03637706980691464
179	0xbfb33c8532c9b33b	-0.0751422165864825
180	0xbfb456db9b57e5ce	-0.07945034544527305
181	0x3f97039acb42636f	0.02247468820187087
182	0xbf9bf69bae6398bd	-0.027307922858107448
183	0x3fa872d18580d157	0.047750995203758854
184	0xbf8e1a6818460aba	-0.014698804131289978
185	0xbfb35861f7ec5f16	-0.07556736281219076
186	0x3fbedeef8ee03d48	0.12058922994787225
187	0x3f6f62a03d354ecb	0.003831208197576296
188	0x3fa9a487cf8cb955	0.0500833931786128
189	0xbfc298efcceb409c	-0.14529225831802683
190	0x3fb0843278b1066c	0.06451716848916939
191	0x3fb7ba2116dbb3f9	0.09268385704099548
192	0x3f7b5bf66c2b6374	0.006679499233279585
193	0xbfbe3e48c7a73ec4	-0.11813788294170552
194	0x3fc58982c13589a2	0.16825899538077943
195	0x3fb6578d2ae54e11	0.0872734288907895
196	0xbfb8a2581ddd622b	-0.09622717599030099
197	0x3fc1881280b531a4	0.1369650963264465
198	0xbfc1540d3a3e01b3	-0.13537755340440824
199	0x3fc36b7471dab2b2	0.15171676215449775
200	0xbf75eb09440bd31a	-0.005351101107170542
201	0xbfaaf3a3d81f2eb3	-0.05264007580953258
202	0xbfc5e32d7487b568	-0.17099540891596665
203	0xbfa6ace69bdfaedc	-0.044287878539618325
204	0xbf98f28ebd30a43a	-0.024362783715478488
205	0xbf689ceb3203d07e	-0.00300451218219605
206	0xbfbbc0ecebb09f10	-0.10841255907200442
207	0x3fcad2b591af92b6	0.20955533612791094
208	0xbfc599bc40cc5128	-0.16875413097353342
209	0x3fbe44634a324cc3	0.11823101579129784
210	0x3fa0a9dbee5c5205	0.0325459221332132
211	0xbfb82a487f601ccc	-0.09439519033195437
212	0xbfa314ed2d841d49	-0.03726903133979904
213	0xbfa052970bb7fd43	-0.03188011186648023
214	0x3fa9464540499801	0.04936424646147942
215	0x3fa13e5c8b6be524	0.033678905505391904
216	0x3fc8b49ee9f0f4e2	0.19301210806762642
217	0xbf9e1fcf8d3942c2	-0.029418223375901283
218	0xbfba19247f848978	-0.10194614518380785
219	0x3fc0bca8331a0e78	0.13075735564426672
220	0xbfa71a235c301c08	-0.045121293071183344
221	0x3fb51083fe29ab9b	0.08228325801034801
222	0xbf93610516c9cc64	-0.01892478896702378
223	0xbfa58c661d68e828	-0.042086783495008995
224	0x3fb0ce44fa5a2204	0.06564742195235601
225	0xbfa8f1d414e83668	-0.04872000460828191
226	0xbfb5410f924c1656	-0.08302399942120905
227	0xbf9ae67ad447a78a	-0.02626983566907585
228	0xbf6c29d7d9fd72c1	-0.003437921128279648
229	0x3fa150fb1f613c5e	0.033820960598512015
230	0xbfa3f44f35fc6f55	-0.03897330793389978
231	0xbfbbc52554b97e0b	-0.10847695654364757
232	0xbfa8a1995fbed690	-0.04810790342109528
233	0x3f9cfd0c52c4e941	0.028309052039938058
234	0x3fa69dfbd4e5a84d	0.044174070108809894
235	0xbfb397a493449983	-0.0765326365986763
236	0x3f845843aca7beeb	0.009933975893516819
237	0x3f95d3d9f0888308	0.021315961175903758
238	0xbfc175c2e6e5effb	-0.13640629076314767
239	0xbfa729e216809bcb	-0.045241418120262354
240	0xbfa65688d521ed0a	-0.043628955857423504
241	0x3fb718f8aaf27e79	0.09022478269116076
242	0x3fa52fac802e736e	0.04137934746470405
243	0xbfaa73a50d3e78a6	-0.051663549296095554
244	0xbfc19795a45a84d0	-0.13743849301412192
245	0xbf6392f2a6fefb3a	-0.00238940613777974
246	0x3fbaea30920a84cf	0.10513595166641497
247	0xbfa7d75cf7f8dbb5	-0.04656496550563053
248	0x3fa6f7f22984ad32	0.044860427444599074
249	0xbfc3980e4a6cc75f	-0.15307787546185644
250	0x3fafb8de38766675	0.06195730628242028
251	0xbfb01b10901877fa	-0.06291297452887071
252	0xbfc0812ad4491936	-0.1289418732214444
253	0xbfb580501d944a16	-0.08398915025853912
254	0xbfbabe3be61d8ab3	-0.1044652401738329
255	0x3f972cc8faa3a9cf	0.022631779001054227
