THU_Deep_Learning/HW2/codes/weights/CNN_test_SoftmaxCrossEntropy_0_conv2_W.png.npy (npy, 1280 bytes, 1 tensors)

array f8 [4, 4, 3, 3]
0.01731363039371687 -0.01471682765643906 0.18476392162833452 0.051908323182203044 0.06734629276923972 -0.010833107425899898 0.1332229721774724 -0.0379010966083232
0.09423371467247658 -0.3120143264377599 0.04646770696325406 -0.12431645886749476 0.018990311986067755 0.14695860968609903 -0.12785125957324212 0.280158043180608
-0.16286855348815443 0.013077792938739166 -0.06176706543124668 -0.13070640564395614 0.054964283739663354 0.1354489850316776 -0.016894087690380755 0.10431521733597737
-0.17496099661385398 -0.1746568823750296 0.1579554507273362 -0.2529553491039258 0.07564285415386204 0.023580859740364803 -0.056808055138236266 0.045560536508571836
-0.010103567919438826 -0.12894867707804453 -0.038039748616135266 0.0877678463867132 -0.046493137967759925 0.0788556966037873 0.20464319868475855 0.19784144364022038
0.13164906656980152 -0.11923560610623489 0.07915139803546173 -0.008687521039269525 0.1843874421035453 0.33626439658037527 0.1657209708991747 0.17790026275851847
-0.0709463979526283 -0.024318949103992855 -0.045495130995435895 -0.1502678178228952 -0.17674245113767303 -0.21997715664455753 -0.04405339823410526 0.08551305160732971
0.08533372248175199 0.35433662951104783 0.37572095037768105 0.3383628282904819 -0.021232773768665853 -0.16687489461791796 -0.08392709352287994 -0.47756497129620357
-0.624562308597169 -0.9148569477753354 -0.39467106250776307 -0.05908857925461356 -0.03307559310415964 0.6885055188995687 0.9088133034970455 0.5819737835677984
-0.08108260537889658 -0.10894556763188565 0.18271759469949397 0.23221634128039148 0.1588854682988561 -0.013496952637552755 0.1266464619603596 0.024070409263825043
0.18877864476972686 0.15264514242143265 0.02230990041128578 -0.06616015602495451 0.07942837830434801 0.04583059995094921 -0.11603405316139467 0.3039398344799645
-0.023780998097420524 -0.019711831182951722 -0.0443512119158732 0.0033367232261351217 -0.06422417149465219 0.04925133086517389 -0.02730320542595074 -0.08924607166328327
0.05736247881475014 -0.011129517869778088 -0.06811037543248064 0.07456004376919949 0.3682410657932487 0.5283862735431317 -0.27921586197603004 0.014580379428081701
0.26090115786074025 -0.5694459066070918 -0.13723561783984237 -0.2545153337870237 0.012785940160113975 0.04214263646186243 0.19282956351058417 -0.09222048649750426
0.018528983703504583 -0.15132271411070256 -0.06466654524125706 0.023703707129516145 -0.07000501943045823 -0.016575113874789642 -0.05531495698449557 -0.11649970359261885
-0.04112458145124804 -0.27380507690034755 -0.16899664552321325 0.0551917717653474 0.034977786122072876 0.11846718436999837 0.08750711625626247 -0.2539611555544326
-0.1757530055191625 -0.329197310335268 -0.5722243093395672 -0.2801196887875138 -0.30100800719152104 -0.3959816917446794 -0.2520878468569733 0.27090939521151935
0.38762959371779737 0.22368973401349398 0.6370727212656049 0.6327738799714988 0.4668555177031236 0.07326220205895685 -0.14531046304475972 -0.329393318106053
00000000: 73a1 4311 aaba 913f 61d7 e12b db23 8ebf
00000010: 77ec 6f1c 58a6 c73f 9d5f ea4c ba93 aa3f
00000020: c562 f34c 9b3d b13f abc9 dd10 ab2f 86bf
00000030: 3501 4a4a 730d c13f 31a0 d4c4 c567 a3bf
00000040: f3e9 b262 b31f b83f dfc0 fbef 0af8 d3bf
00000050: 0c5f 7483 9dca a73f 50bf 3015 34d3 bfbf
00000060: 0d1a af43 3272 933f 8ed4 3b2b 8acf c23f
00000070: 2e4b 4f19 6e5d c0bf 2603 4b00 1cee d13f
00000080: 40a4 6373 e0d8 c4bf 1b53 cea7 87c8 8a3f
00000090: 7383 fecb ee9f afbf 0e2b cfcc fcba c0bf
000000a0: 4347 3852 4724 ac3f b964 7e70 6456 c13f
000000b0: d0f6 8008 af4c 91bf 40e3 eeee 66b4 ba3f
000000c0: db1a 4437 1f65 c6bf 9f39 e91e 285b c6bf
000000d0: 10a7 8c5b e237 c43f d8f9 efa1 6b30 d0bf
000000e0: de55 c480 545d b33f b7f1 95b5 9425 983f
000000f0: 6ea9 ef05 f215 adbf 80c6 95ec b553 a73f
00000100: 9994 4bee 2db1 84bf 3ed2 74e7 6381 c0bf
00000110: c43b 8228 f279 a3bf 880c df1d f477 b63f
00000120: 15b1 1ed6 f2cd a7bf 963d 040e e32f b43f
00000130: 4895 d992 bf31 ca3f cc34 1d51 de52 c93f
00000140: 3ead bb69 e0d9 c03f 6bb9 be84 3986 bebf
00000150: 74b7 fe19 4443 b43f cacd f955 c3ca 81bf
00000160: 6c5c d0f8 019a c73f fbcc 871a 5b85 d53f
00000170: 40fc 2243 5836 c53f c9b2 3f91 6fc5 c63f
00000180: fcbc f90a 8b29 b2bf 1288 4c0c 11e7 98bf
00000190: 2059 8147 234b a7bf 4366 98d1 f93b c3bf
000001a0: 63c0 b923 7f9f c6bf 94e5 d322 3628 ccbf
000001b0: 10e4 62c1 2a8e a6bf 41de 08f0 2ee4 b53f
000001c0: b918 4e4b 6ed8 b53f a296 e18a 73ad d63f
000001d0: d4d3 92e2 cf0b d83f c623 6c90 bca7 d53f
000001e0: 6557 c253 0bbe 95bf d125 7413 285c c5bf
000001f0: aed9 edf9 3e7c b5bf 00ac 5bab 6c90 debf
00000200: b6a6 3718 6afc e3bf 8cd4 e613 8246 edbf
00000210: 9e7f 896a 4a42 d9bf 356c eeb6 db40 aebf
00000220: f038 5bbd 48ef a0bf c740 d9b9 3c08 e63f
00000230: a710 16a3 ff14 ed3f cdb2 f17b 879f e23f
00000240: 3a78 6062 d4c1 b4bf 36ea 0552 dbe3 bbbf
00000250: 93ad d146 4a63 c73f f8b1 b2db 43b9 cd3f
00000260: 199d 13e9 5b56 c43f e93f 6451 4aa4 8bbf
00000270: 9a0d 2386 f335 c03f 739c 5bd2 e9a5 983f
00000280: 090e bc0c e629 c83f c3f1 4b43 e089 c33f
00000290: e1ee 9212 68d8 963f 70e9 6c3a dfef b0bf
000002a0: 8805 310f 6b55 b43f a409 e4bf 1b77 a73f
000002b0: 96ee 8c5f 68b4 bdbf 29c2 4210 c073 d33f
000002c0: 63ee 60c4 0b5a 98bf e0a6 1999 562f 94bf
000002d0: 8eeb 6eb9 33b5 a6bf 3ac9 39a4 9d55 6b3f
000002e0: 67a6 2ecc fe70 b0bf 4467 b36e 7837 a93f
000002f0: f78e 8519 5ff5 9bbf 321c 179f d4d8 b6bf
00000300: 96be 0d65 9d5e ad3f f0e4 2a9a 12cb 86bf
00000310: 8633 007b ae6f b1bf ebb8 93f5 5d16 b33f
00000320: 7513 a8f9 4291 d73f eabc 9054 8ae8 e03f
00000330: 3389 ed34 acde d1bf 997e 7466 51dc 8d3f
00000340: c306 20c5 9ab2 d03f 32fe 369f e638 e2bf
00000350: 0ff7 3bcd ef90 c1bf d587 bcae fa49 d0bf
00000360: 61bf b0d6 832f 8a3f bde8 bd3a b893 a53f
00000370: d26d 7d9e a3ae c83f 612a 8705 c39b b7bf
00000380: 4f80 230c 43f9 923f a1ab 1fee 8a5e c3bf
00000390: 6add f498 fc8d b0bf 1233 a9db c845 983f
000003a0: 4079 0255 d9eb b1bf 8b2b 1410 11f9 90bf
000003b0: a8c3 74f6 3d52 acbf b88a ecb0 ecd2 bdbf
000003c0: 0923 caf8 470e a5bf 2d02 b1ba 0586 d1bf
000003d0: b8f4 d39c aea1 c5bf 001e 7b8d 1842 ac3f
000003e0: 8a29 f6be 9be8 a13f 48b2 848a dd53 be3f
000003f0: 25e8 7cca dd66 b63f cde1 634a e640 d0bf
00000400: 0873 7011 137f c6bf 8a8d 7498 9111 d5bf
00000410: 3dde d25a a94f e2bf 6ab7 9321 7bed d1bf
00000420: 9730 ae16 b743 d3bf f3eb f697 c357 d9bf
00000430: 7e10 7e10 3522 d0bf 1435 275c 9456 d13f
00000440: 84b3 fe5a ecce d83f 87fa 047e dda1 cc3f
00000450: cc4d e054 e662 e43f 22b3 0702 af3f e43f
00000460: fe7d 1ff7 f5e0 dd3f 414c e0c9 4fc1 b23f
00000470: 319d 4583 8899 c2bf be54 32b6 c714 d5bf
