THU_Deep_Learning/HW2/codes/weights/CNN_test_SoftmaxCrossEntropy_0_fc3_W.png.npy (npy, 15808 bytes, 1 tensors)

array f8 [196, 10]
000000 4c 13 44 fc dd 51 c2 bf 5a f9 63 95 5c b9 bc 3f
       -0.14312338655158852 0.11220339438657359
000010 cb 05 7e 40 bb 02 bb 3f 0a 04 24 3a b5 88 b6 3f
       0.1055104286624761 0.08802349729013784
000020 71 74 4a 7c e0 c4 72 bf ba 76 9f c8 04 c5 97 3f
       -0.004582287689712237 0.023212504143762948
000030 7b af 2b 51 d0 c6 72 bf ca f5 98 33 86 40 98 bf
       -0.004584134806218883 -0.023683640383969785
000040 71 e2 8e 2e fa 6b 91 3f c5 05 f5 ab ca de a2 bf
       0.01701346310776092 -0.0368560156735032
000050 ea ab da 92 ae b2 cf bf fe 3f 52 99 3e bf ad bf
       -0.247640439706941 -0.05809970494840398
000060 77 3a 36 16 a7 5d 95 3f 48 46 33 e4 c9 e0 81 bf
       0.020865069132521143 -0.008729531551952566
000070 03 cb e4 a6 26 31 a5 bf 0e d5 6a a1 db 55 99 3f
       -0.04139061724926842 0.024741584517603825
000080 a8 d1 75 3c 49 1a c3 3f 81 81 d8 cf 92 19 c1 bf
       0.1492396874633759 -0.13359294079510778
000090 dc 04 fb 6e 77 78 a1 bf 12 28 d3 17 32 3e 8b 3f
       -0.034122211739949754 0.01330222258765804
0000a0 d7 fd 38 79 2a 4b af bf 56 f7 57 58 4f 11 b7 bf
       -0.061120345399554736 -0.09010787875010115
0000b0 93 d7 0f 62 32 89 a5 3f 85 52 6b 58 5d 84 9b bf
       0.04206235358280632 -0.026872118493729964
0000c0 1c b8 a1 1a fb 29 ae 3f 0f 54 be e8 b0 9b 80 3f
       0.058914038659040296 0.00810945711399749
0000d0 c6 cf 10 37 1d eb b7 bf 7f 7d 0d 77 31 c0 b6 3f
       -0.09343130678536146 0.08887013584670987
0000e0 ef fd 34 15 99 aa 68 3f f6 ef 1b c1 26 89 a9 bf
       0.0030110349559035947 -0.04987450701989353
0000f0 01 3a fe b2 a9 df c1 bf ad 0f 70 8d f2 fa aa 3f
       -0.13963814964195367 0.05269582726035025
000100 40 a6 3e 65 a8 12 a2 3f 1c 9b 86 bf 8f 8d c7 3f
       0.03529859767816079 0.18400761463018334
000110 f4 6f 1d e7 28 09 91 3f c9 0b b5 50 c1 88 86 bf
       0.01663650427450132 -0.011003027225006694
000120 2b 28 40 16 86 8b 90 3f c5 a1 58 9b 2d b1 b7 bf
       0.016157240970677982 -0.09254727404243741
000130 2d c0 6d aa a4 67 af 3f 91 ff 04 6c c1 51 74 3f
       0.06133761005810388 0.004960780672547475
000140 c9 41 df 49 9f b9 c1 3f 16 9b 2a 38 03 b0 8c bf
       0.13847724062953962 -0.014007592345775016
000150 05 7d 94 18 a7 51 a7 bf ec 20 0f 7e 07 a5 88 bf
       -0.045544835806362406 -0.012033518347280801
000160 eb 1c 2e 13 f2 8a a0 bf 01 0f 3e 1e 09 cc b2 bf
       -0.032310070840191184 -0.07342583645191426
000170 92 5c 17 f0 67 ae c7 bf e1 07 cc e6 e7 1d cf 3f
       -0.1850099489517772 0.24310015458473713
000180 a0 b6 c0 94 8a bd af 3f 21 9e 93 02 f9 7c b0 3f
       0.06199296060399928 0.06440693200021787
000190 90 a2 87 1d b3 54 bc 3f 2c 4f 59 a3 09 f9 bd bf
       0.11066741438811278 -0.1170812629509867
0001a0 57 77 f1 5d 38 c6 a2 3f b5 a5 93 8c 77 0e cb bf
       0.03666854998367224 -0.21137899746035563
0001b0 56 cc 27 55 ad b1 d1 3f 8c d3 75 fb 66 58 ae bf
       0.2764695483776384 -0.059268205829460546
0001c0 65 31 25 95 db 3e 8d 3f 72 07 b4 ab 52 e8 a4 3f
       0.014280047883084188 0.04083498331057357
0001d0 6d 6a 35 e9 c6 fa a6 3f a0 d6 5f 70 1d 56 b2 3f
       0.04488202664170591 0.07162651055827007
0001e0 d1 16 0a 8e 1e 5b c6 3f da 77 4e e2 d3 9e a9 3f
       0.17465574203031634 0.05003988397150723
0001f0 bd 3d c5 a6 80 ca c0 3f ce f5 01 9e ee fc b4 bf
       0.13117988722886578 -0.08198443753823101
000200 f6 64 dd a5 74 35 c8 bf 58 06 b2 2a c1 90 bb bf
       -0.18913133715503933 -0.10767752926224128
000210 37 b8 4e 9d e6 d5 b7 bf 5b 6a 99 d6 62 2d 72 3f
       -0.09310761776461694 0.004437814795518048
000220 a2 6d 6d ec fe 3f ba 3f 13 c1 74 e4 e4 2a bf 3f
       0.10253899833826677 0.12174826219120786
000230 4c 46 51 e6 91 ae c2 3f 37 78 72 42 78 8b 91 bf
       0.14595245119066858 -0.017133597426998128
000240 0d 8b ed 51 70 25 96 bf 48 f1 26 7d e9 7f c1 bf
       -0.021627192497713433 -0.13671606646483725
000250 78 6b 44 ba 94 fe bf 3f 32 9f 40 1e d5 2a b8 bf
       0.12497834727802892 -0.0944035719736547
000260 21 50 2f 5b fc 97 ab bf f8 69 63 55 1f 1c 9a bf
       -0.0538939343747702 -0.0254979034296898
000270 f3 ac cb ba fc e3 a6 bf 91 45 ae 73 ef f2 c0 bf
       -0.04470815448970624 -0.13241379879449913
000280 ed cd e5 d5 b2 51 b4 3f 8e 81 31 c8 45 24 b6 bf
       0.0793716213427655 -0.08649097573789374
000290 31 a5 86 bf 92 ed a4 3f af 99 46 cc 29 ed 95 bf
       0.040875039939530906 -0.021412518589977555
0002a0 08 68 ec 6c 13 85 b1 bf bf 69 9a 94 96 50 b0 3f
       -0.06843682679428309 0.06372967842108944
0002b0 66 a8 01 4d a9 54 a1 3f 0f 79 91 11 0c e2 b3 bf
       0.033849039697842184 -0.07766795567429007
0002c0 3a ec 82 4f 7e 26 99 3f d2 cc e3 b1 bb d2 b6 3f
       0.024560903170577776 0.08915303318990489
0002d0 ec 3a c6 aa 39 70 ca bf de 56 9a 71 aa be b7 3f
       -0.2065498432025018 0.09275307916172035
0002e0 7b ee 5a a0 c6 3b ab 3f bd 1e 72 9d 32 78 a9 3f
       0.053190428804978894 0.04974516078897071
0002f0 7a d9 39 01 49 df 93 bf 70 52 b8 b8 59 59 88 bf
       -0.019406452846362644 -0.01188917250605323
000300 6c 0c b4 75 e9 58 a5 bf c9 5e d8 57 94 b0 9a 3f
       -0.041693969362335576 0.02606422220387009
000310 cb dc 12 f0 0d 6c 93 bf 76 f8 a9 85 ff 5f b4 3f
       -0.01896688249391047 0.07958981526641815
000320 75 d1 22 b6 4e 4e ae 3f 2b 75 7b 47 66 69 93 bf
       0.05919118855800579 -0.01895675479214735
000330 10 0c a6 f9 aa 18 85 bf d1 7a 70 cd 72 fd b7 bf
       -0.010300956481620133 -0.09371106639489858
000340 99 8e ba 22 54 91 7f bf 4b 12 57 72 a2 b3 a1 3f
       -0.007706955580633634 0.03457362790826276
000350 87 43 96 ba c8 d2 a0 3f 3c 01 9f ea cb 42 97 3f
       0.032858155037621954 0.022715746111999766
000360 6a 73 1b e0 ed 69 94 3f c7 f2 24 00 d4 ec 26 3f
       0.01993533783285121 0.00017490470788485686
000370 5d 73 f4 9c 43 89 a4 3f ea 6e 4e 9b 31 f7 c2 3f
       0.04010974207833471 0.1481687553722318
000380 4d 3d d8 f5 40 95 42 3f a3 28 60 8c 07 68 78 3f
       0.0005671088399043317 0.005958585248672463
000390 7f a2 77 84 a9 7e b2 bf a1 fe 02 9e 22 42 a7 bf
       -0.07224521144929417 -0.04542644671300634
0003a0 05 ef f5 1b 82 2c 87 3f 86 8a 75 46 9f 05 b0 bf
       0.011315361479084194 -0.06258578748887986
0003b0 53 1c 2c b3 20 19 82 bf 3f e1 d0 56 c0 86 a2 bf
       -0.008836989848999865 -0.03618432101979118
0003c0 59 ee 70 48 c3 33 b5 bf cc 72 2a cd 04 43 9c 3f
       -0.08282108801443523 0.027599406263663792
0003d0 2f 3d 40 d2 6d f9 c5 bf 34 13 98 28 b2 cb ab bf
       -0.17167446867140643 -0.05428845162899734
0003e0 ac 8c f0 c7 ad c7 8d bf da ab c5 66 41 4b bc bf
       -0.014541013397382528 -0.11052330741010455
0003f0 ff 00 86 2a 50 09 a6 3f 78 ea 90 8d d0 52 77 3f
       0.0430398036869537 0.005694212589384955
000400 72 b2 8d ee 66 9b bc bf 57 f6 ae a7 a8 0e b0 3f
       -0.1117462475210205 0.06272367566904201
000410 59 6c 87 60 e6 cb be 3f 32 25 f0 97 fc 68 aa bf
       0.12029876572289434 -0.05158223490441073
000420 55 86 1b be 3c 24 a6 3f 29 f4 99 2b 6d 0f a4 bf
       0.04324521847389621 -0.03918019444697791
000430 cc 13 9e 97 c1 e0 c1 bf 58 29 9d 40 74 e6 8d 3f
       -0.13967151549527868 0.014599712583408461
000440 85 48 9f 75 80 e0 b6 bf 02 a4 10 c0 d3 0f b6 bf
       -0.08936312553058386 -0.08617900313460328
000450 71 27 c6 c4 60 60 86 bf cc 4d 03 bd 0c bf 27 bf
       -0.010926013951365584 -0.00018116980073177994
000460 29 a4 1a cc b5 8a b6 3f 4e 76 f3 53 ec 19 b2 bf
       0.08805404885301073 -0.07070805596910043
000470 98 45 13 b9 8d d1 b6 bf 6e 13 00 5c 4d 40 c1 3f
       -0.08913503426017255 0.1347748469562719
000480 7a 5a 61 07 44 8c 82 3f 5e b9 2c 13 0e 18 c7 bf
       0.009056598162868957 -0.18042159973397082
000490 b8 e3 a7 2a 06 ca c0 3f e2 49 24 4d 1e 21 ab bf
       0.13116528590015064 -0.05298704806968481
0004a0 b3 26 e4 92 e2 85 a2 bf 10 49 7f 61 16 d4 c6 bf
       -0.036177711897903995 -0.17834739456754578
0004b0 7e 03 2a 25 a1 0e b2 bf e2 57 f9 a8 2c e8 a7 bf
       -0.07053572804762884 -0.04669322550459733
0004c0 e6 7b 2f 4c 3c cf c3 3f 78 84 b4 68 f5 9b 7c bf
       0.15476182670587874 -0.006984671238826505
0004d0 cc 6f 17 7b 7b f1 c1 bf 41 68 47 7c c9 4c b3 bf
       -0.1401819563897092 -0.07539042743829417
0004e0 4a be 7a a6 94 9b a5 3f 09 0d 14 9f da b8 b8 3f
       0.04220261127681775 0.09657064803836958
0004f0 ee b9 6b 80 21 f9 a8 3f 60 57 cb 8f ff 66 c5 bf
       0.04877571766506948 -0.16720575829702522
000500 a9 f5 d9 46 57 d8 c0 3f 5a 24 5c 01 99 00 98 3f
       0.13160220107594725 0.023439779956820984
000510 5a c4 44 cb 4e 37 af 3f f0 08 8a 98 05 ed a9 bf
       0.06096883994394693 -0.05063645827341812
000520 8d ac c1 95 f8 34 ac 3f 81 ec ba 0b db 45 c9 3f
       0.05509163692553285 0.19744432518732327
000530 4b 49 33 75 bf bc a1 3f 6b 19 e5 d7 3f 4b b3 3f
       0.03464315705936601 0.07536696453926132
000540 5e 9d e6 d1 41 f5 97 bf 04 03 b0 8b 45 8c be bf
       -0.02339651912339257 -0.11932787571278075
000550 b9 a0 16 96 8a f9 a9 bf 70 98 e8 a9 73 6f 92 3f
       -0.05073197443135897 0.018003279920002446
000560 00 2a ba 9b 8a 76 c0 3f c4 12 15 4b 74 29 b1 3f
       0.128617597616838 0.06703879197182078
000570 b0 59 7b 6c 5c 0a be 3f 99 ee 58 d9 ee ab c6 bf
       0.11734559677584033 -0.17712197888055384
000580 88 e2 bd 55 f1 66 c4 3f bb c5 1e e9 76 c5 af bf
       0.15939156233413976 -0.062053409535461644
000590 0b b5 af 28 73 ea a5 3f 2d 0b 17 4d c4 f0 b1 bf
       0.04280433532390234 -0.07008005983429362
0005a0 24 51 56 d3 47 a1 b3 bf 01 d1 5c 86 08 4c 3b 3f
       -0.07667969617461218 0.0004165192425376191
0005b0 4b 79 a1 f5 b7 6a 95 bf f1 6d be 56 c7 47 aa 3f
       -0.02091491162024654 0.05132887777218887
0005c0 94 38 bd 7e a3 1d a2 bf bd 1e b0 b1 bf d6 ad bf
       -0.03538237497433375 -0.05827902835886565
0005d0 d4 a3 20 02 3f 3d c0 3f d0 18 dd 9a e6 64 6c 3f
       0.126869083441561 0.0034660820009860607
0005e0 d0 7b aa 1e 12 10 b0 3f e3 06 27 68 1c 59 c3 bf
       0.06274522064857924 -0.15115695081299582
0005f0 88 bb 48 6d 8b 70 af 3f 5d 83 e0 42 89 30 b7 3f
       0.0614055224326569 0.09058435328235022
000600 39 7c 56 9a 51 26 2d bf 0d a7 11 72 98 6a bc bf
       -0.0002223944294827711 -0.11100151810537913
000610 9f a2 3a ab 80 90 c4 3f 01 d6 70 5f f8 8a b7 3f
       0.1606598697737995 0.09196426706406415
000620 29 aa 3b ef cc d0 b5 bf 10 ad 75 00 b8 34 c1 3f
       -0.08521729317332273 0.1344213487858288
000630 c9 95 12 07 5b 03 c0 bf a6 23 54 0b b7 07 c2 3f
       -0.12510240407315923 0.14086044362218536
000640 61 1f d0 39 1c 61 84 bf 96 d5 0f be b0 f7 aa bf
       -0.00995084811621866 -0.05267097778407075
000650 ce 5f 33 b5 6c c0 c5 bf 09 af ef 99 15 d1 a6 bf
       -0.16993483398141368 -0.04456393722634117
000660 eb ed d8 6f 35 54 99 bf 9b 55 42 52 86 91 70 3f
       -0.024735293342230163 0.004045033161806623
000670 81 ff d0 b7 42 b5 bb bf b3 3d 85 dd a5 e6 ca 3f
       -0.1082345675249581 0.21016381565503436
000680 89 96 ac 1e b0 bc c5 bf 85 9f ae 8e 39 9d bd 3f
       -0.16982079980623535 0.1156803105683349
000690 d0 80 41 02 c4 7d a0 3f 45 0d cf 40 fb 4f b8 bf
       0.03220951583421228 -0.09497042019124986
0006a0 1f cc 0a b6 25 99 a0 bf 04 3c a9 46 ae 62 9c bf
       -0.03241842124170823 -0.0277201872470947
0006b0 37 de a2 ba 37 e2 a8 3f ee 63 5c 62 6d 21 a2 3f
       0.04860090401910749 0.035411279923387315
0006c0 03 10 55 54 c6 b7 c8 3f 41 89 17 8f f6 aa 9c bf
       0.19310835950648206 -0.027995922549856948
0006d0 f7 a4 93 8a f8 34 bb bf 29 af db bb 58 df bf 3f
       -0.10627702124806492 0.12450174890880973
0006e0 56 64 38 9e 48 35 a7 bf 98 38 63 0c e1 10 b5 3f
       -0.0453283970966331 0.08228880455428322
0006f0 7a 94 06 f6 b2 17 92 bf 0e c4 6a 33 a1 6a a5 bf
       -0.01766852976438258 -0.041829144979949814
000700 4c a0 8e 41 09 b6 b0 3f 10 4a a8 d1 79 04 a9 bf
       0.06527765131488755 -0.04886227306646529
000710 8e 3c a6 77 e9 3e b5 bf b6 23 16 d4 3b 4d 9a bf
       -0.08299121066214551 -0.025685248203021614
000720 50 2f 19 67 4a 06 6c bf 10 08 5b ec f0 94 a0 3f
       -0.0034209683588296916 0.03238633046341033
000730 9c c1 2c 39 4e 0e a6 bf d6 4a 4f 6e 68 bc bb bf
       -0.04307789276060989 -0.1083436269102934
000740 53 3e 35 25 05 ed 9f bf 12 96 ca 57 24 a5 9e 3f
       -0.031177597423548708 0.029926841600760375
000750 9d 0d b0 29 18 2b a2 3f 55 dc 0f 3a 70 35 b2 bf
       0.035485034073668965 -0.07112790505912987
000760 01 68 cc 71 25 0a 75 3f fb 8b 51 2d 29 d6 9b 3f
       0.005136629359890677 0.027184146300339034
000770 b9 83 d6 61 28 66 c1 bf 53 70 b1 2c ca bc ad bf
       -0.13593010689967658 -0.058080976443961284
000780 31 44 2e 7e e6 6b a8 bf 67 2c 0d d5 52 fa b6 3f
       -0.04769821443836298 0.08975713445140486
000790 eb f4 e8 f7 c7 34 a7 3f d8 be fe 5c ee 08 aa bf
       0.04532456303830109 -0.05084938893503271
0007a0 6f 51 80 2e 8f 4e c2 bf 52 cd a5 93 1f c4 74 bf
       -0.14302243967598424 -0.00506985029857117
0007b0 15 be ad 47 cb 8c ba 3f 28 f4 64 1b 7c 29 a8 bf
       0.103710846900633 -0.04719150385287946
0007c0 c4 84 4a 05 a3 94 a8 3f cd a4 f6 8b 7b b4 c2 bf
       0.04800900878513795 -0.14613289198067606
0007d0 da ad 22 15 c8 fe af 3f b9 f5 73 13 50 6d b5 bf
       0.06249070413590703 -0.08369923090864163
0007e0 3e ea c6 38 39 97 bc bf 35 38 e3 3c 03 32 b3 bf
       -0.11168248783261789 -0.07498188244355293
0007f0 e8 2a 39 87 a2 ec bc bf b6 44 88 2e e5 9f 9f 3f
       -0.11298576165533414 0.030883389439684016
