THU_Deep_Learning/HW2/codes/weights/CNN_test_SoftmaxCrossEntropy_0_conv1_W.png.npy (npy, 416 bytes, 1 tensors)

array f8 [4, 1, 3, 3]
000000 cf c8 70 41 41 43 c2 bf 7c 93 0d f7 af 1f b3 bf
       -0.14267745681133312 -0.07470226079528958
000010 da 73 9c 50 cb be ae bf 5b a0 ca 2f ac 22 b7 3f
       -0.06004939421675433 0.09037281195435425
000020 13 70 da cc 6a 9a 8e 3f 46 45 a2 10 60 bc bb bf
       0.014942964913011314 -0.10834312826252299
000030 c4 38 32 39 2c 6f b2 3f 3e 5c e3 c6 71 90 af 3f
       0.07200886150733071 0.061648898628555035
000040 06 85 9f 96 94 f4 c0 3f 8e 5b 55 f2 15 a1 d6 3f
       0.13246400217671112 0.35358189263700346
000050 65 56 b6 1e fa c9 b0 bf 97 1d f4 8e 15 a3 9d bf
       -0.06558192491351063 -0.028942429399675253
000060 04 b7 11 5d e4 95 c5 3f 87 35 02 12 4d 03 c4 3f
       0.16863684219736552 0.1563507402355919
000070 6f 0b 51 c9 86 96 c4 3f 4b f4 4e 91 41 e1 ce 3f
       0.16084370450888794 0.24124927134644944
000080 0c e9 61 6c fc 0f 8b 3f 68 c9 d6 11 82 6e b1 3f
       0.013214084680147418 0.06809246955416415
000090 55 19 39 d2 6f 09 d1 3f a4 af fb a6 78 17 d5 3f
       0.2662009766539957 0.32955757433841826
0000a0 5b ed 41 40 3d 9e d1 3f 81 65 74 b4 ae 11 d1 3f
       0.2752831580653116 0.2667042505505251
0000b0 ec 42 33 30 8d ad 9b bf 07 dd 6c 20 50 37 96 3f
       -0.027029233996304677 0.0216953773299027
0000c0 5f 03 43 28 96 07 d8 bf bb 1b 5e 9e 0c c1 d7 bf
       -0.3754630463773107 -0.3711577936705301
0000d0 61 be f3 d3 bb 07 de bf a8 02 52 b8 a7 46 e2 bf
       -0.46922202776383953 -0.5711248970038314
0000e0 10 1e 01 e8 d2 0c e6 bf 93 30 c8 88 4d 8f ec bf
       -0.6890654116950277 -0.892493025924994
0000f0 29 96 18 9a 20 2a ec bf 32 ab fc 8e 07 92 e5 bf
       -0.8801424989403063 -0.6740758698191256
000100 1f 3d 05 c9 81 31 ea bf 96 53 47 c4 25 c8 eb bf
       -0.8185433317357002 -0.8681820710722714
000110 ab 82 e6 f0 59 20 e6 bf 41 34 ea d5 97 06 e2 bf
       -0.6914491372191 -0.5633048227333647
